_________________________________________________________________
Layer(type) Output Shape                 Param
== == == == == == == == == == == == == == == == == == == == == == == == == == == == == == == == =
input_1(Inp[(None, 32, 32, 32, 1)]      0
_________________________________________________________________
conv3d(Conv(None, 32, 32, 32, 16)       448
_________________________________________________________________
batch_normal(None, 32, 32, 32, 16)       64
_________________________________________________________________
conv3d_1(Co(None, 32, 32, 32, 16)       6928
_________________________________________________________________
batch_normal(None, 32, 32, 32, 16)       64
_________________________________________________________________
max_pooling3(None, 16, 16, 16, 16)       0
_________________________________________________________________
conv3d_2(Co(None, 16, 16, 16, 32)       13856
_________________________________________________________________
batch_normal(None, 16, 16, 16, 32)       128
_________________________________________________________________
conv3d_3(Co(None, 16, 16, 16, 32)       27680
_________________________________________________________________
batch_normal(None, 16, 16, 16, 32)       128
_________________________________________________________________
max_pooling3(None, 8, 8, 8, 32)          0
_________________________________________________________________
conv3d_4(Co(None, 8, 8, 8, 64)          55360
_________________________________________________________________
batch_normal(None, 8, 8, 8, 64)          256
_________________________________________________________________
conv3d_5(Co(None, 8, 8, 8, 64)          110656
_________________________________________________________________
batch_normal(None, 8, 8, 8, 64)          256
_________________________________________________________________
max_pooling3(None, 4, 4, 4, 64)          0
_________________________________________________________________
conv3d_6(Co(None, 4, 4, 4, 128)         221312
_________________________________________________________________
batch_normal(None, 4, 4, 4, 128)         512
_________________________________________________________________
conv3d_7(Co(None, 4, 4, 4, 128)         442496
_________________________________________________________________
batch_normal(None, 4, 4, 4, 128)         512
_________________________________________________________________
max_pooling3(None, 2, 2, 2, 128)         0
_________________________________________________________________
conv3d_8(Co(None, 2, 2, 2, 256)         884992
_________________________________________________________________
batch_normal(None, 2, 2, 2, 256)         1024
_________________________________________________________________
conv3d_9(Co(None, 2, 2, 2, 256)         1769728
_________________________________________________________________
batch_normal(None, 2, 2, 2, 256)         1024
_________________________________________________________________
max_pooling3(None, 1, 1, 1, 256)         0
== == == == == == == == == == == == == == == == == == == == == == == == == == == == == == == ===Total params: 3, 537, 424
Trainable params: 3, 535, 440
Non-trainable params: 1, 984
_________________________________________________________________
Model: "sequential"
_________________________________________________________________
Layer(type) Output Shape                 Param
== == == == == == == == == == == == == == == == == == == == == == == == == == == == == == == ===model(Model(None, 1, 1, 1, 256)         3537424
_________________________________________________________________
flatten(Fla(None, 256)                  0
_________________________________________________________________
dense(Dense(None, 1024)                 263168
== == == == == == == == == == == == == == == == == == == == == == == == == == == == == == == ===Total params: 3, 800, 592
Trainable params: 3, 798, 608
Non-trainable params: 1, 984
_________________________________________________________________
Model: "model_1"
__________________________________________________________________________________________________
Layer(type)       Output Shape                                Param  # Connected
== == == == == == == == == == == == == == == == == == == == == == == == == == == == == == == == == == == == == == == == == == == == == == == == ==
input_2(InputLaye[(None, 10, 32, 32, 32, 1)]                 0
__________________________________________________________________________________________________
time_distributed((None, 10, 1024)                            3800592                  input_2[0]
__________________________________________________________________________________________________
gru(GRU)(None, 256)                                 984576                   time_distr
__________________________________________________________________________________________________
dense_1(Dense)(None, 1024)                                263168                   gru[0][0]
__________________________________________________________________________________________________
dense_2(Dense)(None, 1024)                                263168                   gru[0][0]
__________________________________________________________________________________________________
input_3(InputLaye[(None, 2, 32, 32, 32, 1)]                  0
__________________________________________________________________________________________________
lambda (Lambda)(None, 2, 1024)                             0                        dense_1[0]
                                                                                        dense_2[0]
__________________________________________________________________________________________________
time_distributed_1(None, 2, 1024)                             3800592                  input_3[0]
__________________________________________________________________________________________________
cpc_layer(CPCLaye(None, 1)                                   0 lambda[0][
                                                                                        time_distr
== == == == == == == == == == == == == == == == == == == == == == == == == == == == == == == == == == == == == == == == == == == == == == == == ==
Total params: 5, 311, 504
Trainable params: 5, 309, 520
Non-trainable params: 1, 984
__________________________________________________________________________________________________
…
